…
eckpoint shards:   0%|          | 0/3 [00:00<?, ?it/s]","application/vnd.jupyter.widget-view+json":{"version_major":2,"version_minor":0,"model_id":"d964d177d513420db39e23bc51126b32"}},"metadata":{}},{"output_type":"display_data","data":{"text/plain":"generation_config.json:   0%|          | 0.00/119 [00:00<?, ?B/s]","application/vnd.jupyter.widget-view+json":{"version_major":2,"version_minor":0,"model_id":"f6903ffda601467b87a503841b24dc8a"}},"metadata":{}},{"name":"stdout","text":"CLIPModel(\n  (model): SiglipVisionTransformer(\n    (embeddings): SiglipVisionEmbeddings(\n      (patch_embedding): Conv2d(3, 1024, kernel_size=(16, 16), stride=(16, 16), padding=valid)\n      (position_embedding): Embedding(1024, 1024)\n    )\n    (encoder): SiglipEncoder(\n      (layers): ModuleList(\n        (0-23): 24 x SiglipEncoderLayer(\n          (self_attn): SiglipAttention(\n            (k_proj): Linear(in_features=1024, out_features=1024, bias=True)\n            (v_proj): Linear(in_features=1024, out_features=1024, bias=True)\n            (q_proj): Linear(in_features=1024, out_features=1024, bias=True)\n            (out_proj): Linear(in_features=1024, out_features=1024, bias=True)\n          )\n          (layer_norm1): LayerNorm((1024,), eps=1e-06, elementwise_affine=True)\n          (mlp): SiglipMLP(\n            (activation_fn): GELUActivation()\n            (fc1): Linear(in_features=1024, out_features=4096, bias=True)\n            (fc2): Linear(in_features=4096, out_features=1024, bias=True)\n          )\n          (layer_norm2): LayerNorm((1024,), eps=1e-06, elementwise_affine=True)\n        )\n      )\n    )\n    (post_layernorm): LayerNorm((1024,), eps=1e-06, elementwise_affine=True)\n    (head): SiglipMultiheadAttentionPoolingHead(\n      (attention): MultiheadAttention(\n        (out_proj): NonDynamicallyQuantizableLinear(in_features=1024, out_features=1024, bias=True)\n      )\n      (layernorm): LayerNorm((1024,), eps=1e-06, elementwise_affine=True)\n      (mlp): SiglipMLP(\n        (activation_fn): GELUActivation()\n        (fc1): Linear(in_features=1024, out_features=4096, bias=True)\n        (fc2): Linear(in_features=4096, out_features=1024, bias=True)\n      )\n    )\n  )\n  (attn_pool): Sequential(\n    (0): Linear(in_features=1024, out_features=10240, bias=True)\n    (1): GELUActivation()\n    (2): Linear(in_features=10240, out_features=2560, bias=True)\n  )\n  (ln_post): LayerNorm((2560,), eps=1e-06, elementwise_affine=True)\n)\nSiglipVisionTransformer(\n  (embeddings): SiglipVisionEmbeddings(\n    (patch_embedding): Conv2d(3, 1024, kernel_size=(16, 16), stride=(16, 16), padding=valid)\n    (position_embedding): Embedding(1024, 1024)\n  )\n  (encoder): SiglipEncoder(\n    (layers): ModuleList(\n      (0-23): 24 x SiglipEncoderLayer(\n        (self_attn): SiglipAttention(\n          (k_proj): Linear(in_features=1024, out_features=1024, bias=True)\n          (v_proj): Linear(in_features=1024, out_features=1024, bias=True)\n          (q_proj): Linear(in_features=1024, out_features=1024, bias=True)\n          (out_proj): Linear(in_features=1024, out_features=1024, bias=True)\n        )\n        (layer_norm1): LayerNorm((1024,), eps=1e-06, elementwise_affine=True)\n        (mlp): SiglipMLP(\n          (activation_fn): GELUActivation()\n          (fc1): Linear(in_features=1024, out_features=4096, bias=True)\n          (fc2): Linear(in_features=4096, out_features=1024, bias=True)\n        )\n        (layer_norm2): LayerNorm((1024,), eps=1e-06, elementwise_affine=True)\n      )\n    )\n  )\n  (post_layernorm): LayerNorm((1024,), eps=1e-06, elementwise_affine=True)\n  (head): SiglipMultiheadAttentionPoolingHead(\n    (attention): MultiheadAttention(\n      (out_proj): NonDynamicallyQuantizableLinear(in_features=1024, out_features=1024, bias=True)\n    )\n    (layernorm): LayerNorm((1024,), eps=1e-06, elementwise_affine=True)\n    (mlp): SiglipMLP(\n      (activation_fn): GELUActivation()\n      (fc1): Linear(in_features=1024, out_features=4096, bias=True)\n      (fc2): Linear(in_features=4096, out_features=1024, bias=True)\n    )\n  )\n)\n","output_type":"stream"}],"execution_count":2},{"cell_type":"code","source":"import os\nimport warnings\nwarnings.filterwarnings(\"ignore\")\n\nfrom transformers import logging\nlogging.set_verbosity_error()\n\nimport torch\nfrom transformers import AutoConfig, AutoModelForCausalLM\n\n# 1. Load the shared config\nconfig = AutoConfig.
…
